…
      ]
    },
    {
      "cell_type": "code",
      "source": [
        "!./darknet detect cfg/yolov3.cfg yolov3.weights /content/darknet/data/dog.jpg"
      ],
      "metadata": {
        "colab": {
          "base_uri": "https://localhost:8080/"
        },
        "id": "eReEdtCnZvWL",
        "outputId": "d624c58c-1043-474e-cc95-9257ecb91d7e"
      },
      "execution_count": 15,
      "outputs": [
        {
          "output_type": "stream",
          "name": "stdout",
          "text": [
            "layer     filters    size              input                output\n",
            "    0 conv     32  3 x 3 / 1   608 x 608 x   3   ->   608 x 608 x  32  0.639 BFLOPs\n",
            "    1 conv     64  3 x 3 / 2   608 x 608 x  32   ->   304 x 304 x  64  3.407 BFLOPs\n",
            "    2 conv     32  1 x 1 / 1   304 x 304 x  64   ->   304 x 304 x  32  0.379 BFLOPs\n",
            "    3 conv     64  3 x 3 / 1   304 x 304 x  32   ->   304 x 304 x  64  3.407 BFLOPs\n",
            "    4 res    1                 304 x 304 x  64   ->   304 x 304 x  64\n",
            "    5 conv    128  3 x 3 / 2   304 x 304 x  64   ->   152 x 152 x 128  3.407 BFLOPs\n",
            "    6 conv     64  1 x 1 / 1   152 x 152 x 128   ->   152 x 152 x  64  0.379 BFLOPs\n",
            "    7 conv    128  3 x 3 / 1   152 x 152 x  64   ->   152 x 152 x 128  3.407 BFLOPs\n",
            "    8 res    5                 152 x 152 x 128   ->   152 x 152 x 128\n",
            "    9 conv     64  1 x 1 / 1   152 x 152 x 128   ->   152 x 152 x  64  0.379 BFLOPs\n",
            "   10 conv    128  3 x 3 / 1   152 x 152 x  64   ->   152 x 152 x 128  3.407 BFLOPs\n",
            "   11 res    8                 152 x 152 x 128   ->   152 x 152 x 128\n",
            "   12 conv    256  3 x 3 / 2   152 x 152 x 128   ->    76 x  76 x 256  3.407 BFLOPs\n",
            "   13 conv    128  1 x 1 / 1    76 x  76 x 256   ->    76 x  76 x 128  0.379 BFLOPs\n",
            "   14 conv    256  3 x 3 / 1    76 x  76 x 128   ->    76 x  76 x 256  3.407 BFLOPs\n",
            "   15 res   12                  76 x  76 x 256   ->    76 x  76 x 256\n",
            "   16 conv    128  1 x 1 / 1    76 x  76 x 256   ->    76 x  76 x 128  0.379 BFLOPs\n",
            "   17 conv    256  3 x 3 / 1    76 x  76 x 128   ->    76 x  76 x 256  3.407 BFLOPs\n",
            "   18 res   15                  76 x  76 x 256   ->    76 x  76 x 256\n",
            "   19 conv    128  1 x 1 / 1    76 x  76 x 256   ->    76 x  76 x 128  0.379 BFLOPs\n",
            "   20 conv    256  3 x 3 / 1    76 x  76 x 128   ->    76 x  76 x 256  3.407 BFLOPs\n",
            "   21 res   18                  76 x  76 x 256   ->    76 x  76 x 256\n",
            "   22 conv    128  1 x 1 / 1    76 x  76 x 256   ->    76 x  76 x 128  0.379 BFLOPs\n",
            "   23 conv    256  3 x 3 / 1    76 x  76 x 128   ->    76 x  76 x 256  3.407 BFLOPs\n",
            "   24 res   21                  76 x  76 x 256   ->    76 x  76 x 256\n",
            "   25 conv    128  1 x 1 / 1    76 x  76 x 256   ->    76 x  76 x 128  0.379 BFLOPs\n",
            "   26 conv    256  3 x 3 / 1    76 x  76 x 128   ->    76 x  76 x 256  3.407 BFLOPs\n",
            "   27 res   24                  76 x  76 x 256   ->    76 x  76 x 256\n",
            "   28 conv    128  1 x 1 / 1    76 x  76 x 256   ->    76 x  76 x 128  0.379 BFLOPs\n",
            "   29 conv    256  3 x 3 / 1    76 x  76 x 128   ->    76 x  76 x 256  3.407 BFLOPs\n",
            "   30 res   27                  76 x  76 x 256   ->    76 x  76 x 256\n",
            "   31 conv    128  1 x 1 / 1    76 x  76 x 256   ->    76 x  76 x 128  0.379 BFLOPs\n",
            "   32 conv    256  3 x 3 / 1    76 x  76 x 128   ->    76 x  76 x 256  3.407 BFLOPs\n",
            "   33 res   30                  76 x  76 x 256   ->    76 x  76 x 256\n",
            "   34 conv    128  1 x 1 / 1    76 x  76 x 256   ->    76 x  76 x 128  0.379 BFLOPs\n",
            "   35 conv    256  3 x 3 / 1    76 x  76 x 128   ->    76 x  76 x 256  3.407 BFLOPs\n",
            "   36 res   33                  76 x  76 x 256   ->    76 x  76 x 256\n",
            "   37 conv    512  3 x 3 / 2    76 x  76 x 256   ->    38 x  38 x 512  3.407 BFLOPs\n",
            "   38 conv    256  1 x 1 / 1    38 x  38 x 512   ->    38 x  38 x 256  0.379 BFLOPs\n",
            "   39 conv    512  3 x 3 / 1    38 x  38 x 256   ->    38 x  38 x 512  3.407 BFLOPs\n",
            "   40 res   37                  38 x  38 x 512   ->    38 x  38 x 512\n",
            "   41 conv    256  1 x 1 / 1    38 x  38 x 512   ->    38 x  38 x 256  0.379 BFLOPs\n",
            "   42 conv    512  3 x 3 / 1    38 x  38 x 256   ->    38 x  38 x 512  3.407 BFLOPs\n",
            "   43 res   40                  38 x  38 x 512   ->    38 x  38 x 512\n",
            "   44 conv    256  1 x 1 / 1    38 x  38 x 512   ->    38 x  38 x 256  0.379 BFLOPs\n",
            "   45 conv    512  3 x 3 / 1    38 x  38 x 256   ->    38 x  38 x 512  3.407 BFLOPs\n",
            "   46 res   43                  38 x  38 x 512   ->    38 x  38 x 512\n",
            "   47 conv    256  1 x 1 / 1    38 x  38 x 512   ->    38 x  38 x 256  0.379 BFLOPs\n",
            "   48 conv    512  3 x 3 / 1    38 x  38 x 256   ->    38 x  38 x 512  3.407 BFLOPs\n",
            "   49 res   46                  38 x  38 x 512   ->    38 x  38 x 512\n",
            "   50 conv    256  1 x 1 / 1    38 x  38 x 512   ->    38 x  38 x 256  0.379 BFLOPs\n",
            "   51 conv    512  3 x 3 / 1    38 x  38 x 256   ->    38 x  38 x 512  3.407 BFLOPs\n",
            "   52 res   49                  38 x  38 x 512   ->    38 x  38 x 512\n",
            "   53 conv    256  1 x 1 / 1    38 x  38 x 512   ->    38 x  38 x 256  0.379 BFLOPs\n",
            "   54 conv    512  3 x 3 / 1    38 x  38 x 256   ->    38 x  38 x 512  3.407 BFLOPs\n",
            "   55 res   52                  38 x  38 x 512   ->    38 x  38 x 512\n",
            "   56 conv    256  1 x 1 / 1    38 x  38 x 512   ->    38 x  38 x 256  0.379 BFLOPs\n",
            "   57 conv    512  3 x 3 / 1    38 x  38 x 256   ->    38 x  38 x 512  3.407 BFLOPs\n",
            "   58 res   55                  38 x  38 x 512   ->    38 x  38 x 512\n",
            "   59 conv    256  1 x 1 / 1    38 x  38 x 512   ->    38 x  38 x 256  0.379 BFLOPs\n",
            "   60 conv    512  3 x 3 / 1    38 x  38 x 256   ->    38 x  38 x 512  3.407 BFLOPs\n",
            "   61 res   58                  38 x  38 x 512   ->    38 x  38 x 512\n",
            "   62 conv   1024  3 x 3 / 2    38 x  38 x 512   ->    19 x  19 x1024  3.407 BFLOPs\n",
            "   63 conv    512  1 x 1 / 1    19 x  19 x1024   ->    19 x  19 x 512  0.379 BFLOPs\n",
            "   64 conv   1024  3 x 3 / 1    19 x  19 x 512   ->    19 x  19 x1024  3.407 BFLOPs\n",
            "   65 res   62                  19 x  19 x1024   ->    19 x  19 x1024\n",
            "   66 conv    512  1 x 1 / 1    19 x  19 x1024   ->    19 x  19 x 512  0.379 BFLOPs\n",
            "   67 conv   1024  3 x 3 / 1    19 x  19 x 512   ->    19 x  19 x1024  3.407 BFLOPs\n",
            "   68 res   65                  19 x  19 x1024   ->    19 x  19 x1024\n",
            "   69 conv    512  1 x 1 / 1    19 x  19 x1024   ->    19 x  19 x 512  0.379 BFLOPs\n",
            "   70 conv   1024  3 x 3 / 1    19 x  19 x 512   ->    19 x  19 x1024  3.407 BFLOPs\n",
            "   71 res   68                  19 x  19 x1024   ->    19 x  19 x1024\n",
            "   72 conv    512  1 x 1 / 1    19 x  19 x1024   ->    19 x  19 x 512  0.379 BFLOPs\n",
            "   73 conv   1024  3 x 3 / 1    19 x  19 x 512   ->    19 x  19 x1024  3.407 BFLOPs\n",
            "   74 res   71                  19 x  19 x1024   ->    19 x  19 x1024\n",
            "   75 conv    512  1 x 1 / 1    19 x  19 x1024   ->    19 x  19 x 512  0.379 BFLOPs\n",
            "   76 conv   1024  3 x 3 / 1    19 x  19 x 512   ->    19 x  19 x1024  3.407 BFLOPs\n",
            "   77 conv    512  1 x 1 / 1    19 x  19 x1024   ->    19 x  19 x 512  0.379 BFLOPs\n",
            "   78 conv   1024  3 x 3 / 1    19 x  19 x 512   ->    19 x  19 x1024  3.407 BFLOPs\n",
            "   79 conv    512  1 x 1 / 1    19 x  19 x1024   ->    19 x  19 x 512  0.379 BFLOPs\n",
            "   80 conv   1024  3 x 3 / 1    19 x  19 x 512   ->    19 x  19 x1024  3.407 BFLOPs\n",
            "   81 conv    255  1 x 1 / 1    19 x  19 x1024   ->    19 x  19 x 255  0.189 BFLOPs\n",
            "   82 yolo\n",
            "   83 route  79\n",
            "   84 conv    256  1 x 1 / 1    19 x  19 x 512   ->    19 x  19 x 256  0.095 BFLOPs\n",
            "   85 upsample            2x    19 x  19 x 256   ->    38 x  38 x 256\n",
            "   86 route  85 61\n",
            "   87 conv    256  1 x 1 / 1    38 x  38 x 768   ->    38 x  38 x 256  0.568 BFLOPs\n",
            "   88 conv    512  3 x 3 / 1    38 x  38 x 256   ->    38 x  38 x 512  3.407 BFLOPs\n",
            "   89 conv    256  1 x 1 / 1    38 x  38 x 512   ->    38 x  38 x 256  0.379 BFLOPs\n",
            "   90 conv    512  3 x 3 / 1    38 x  38 x 256   ->    38 x  38 x 512  3.407 BFLOPs\n",
            "   91 conv    256  1 x 1 / 1    38 x  38 x 512   ->    38 x  38 x 256  0.379 BFLOPs\n",
            "   92 conv    512  3 x 3 / 1    38 x  38 x 256   ->    38 x  38 x 512  3.407 BFLOPs\n",
            "   93 conv    255  1 x 1 / 1    38 x  38 x 512   ->    38 x  38 x 255  0.377 BFLOPs\n",
            "   94 yolo\n",
            "   95 route  91\n",
            "   96 conv    128  1 x 1 / 1    38 x  38 x 256   ->    38 x  38 x 128  0.095 BFLOPs\n",
            "   97 upsample            2x    38 x  38 x 128   ->    76 x  76 x 128\n",
            "   98 route  97 36\n",
            "   99 conv    128  1 x 1 / 1    76 x  76 x 384   ->    76 x  76 x 128  0.568 BFLOPs\n",
            "  100 conv    256  3 x 3 / 1    76 x  76 x 128   ->    76 x  76 x 256  3.407 BFLOPs\n",
            "  101 conv    128  1 x 1 / 1    76 x  76 x 256   ->    76 x  76 x 128  0.379 BFLOPs\n",
            "  102 conv    256  3 x 3 / 1    76 x  76 x 128   ->    76 x  76 x 256  3.407 BFLOPs\n",
            "  103 conv    128  1 x 1 / 1    76 x  76 x 256   ->    76 x  76 x 128  0.379 BFLOPs\n",
            "  104 conv    256  3 x 3 / 1    76 x  76 x 128   ->    76 x  76 x 256  3.407 BFLOPs\n",
            "  105 conv    255  1 x 1 / 1    76 x  76 x 256   ->    76 x  76 x 255  0.754 BFLOPs\n",
            "  106 yolo\n",
            "Loading weights from yolov3.weights...Done!\n",
            "/content/darknet/data/dog.jpg: Predicted in 36.668581 seconds.\n",
            "dog: 100%\n",
            "truck: 92%\n",
            "bicycle: 99%\n"
          ]
        }
      ]
    },
    {
      "cell_type": "code",
      "source": [
…
      ]
    },
    {
      "cell_type": "code",
      "source": [
        "!./darknet detector test cfg/coco.data cfg/yolov3.cfg yolov3.weights data/dog.jpg"
      ],
      "metadata": {
        "colab": {
          "base_uri": "https://localhost:8080/"
        },
        "id": "LFzirS9IapAy",
        "outputId": "50ed5a24-8fd1-4442-9993-186e032af74b"
      },
      "execution_count": 18,
      "outputs": [
        {
          "output_type": "stream",
          "name": "stdout",
          "text": [
            "layer     filters    size              input                output\n",
            "    0 conv     32  3 x 3 / 1   608 x 608 x   3   ->   608 x 608 x  32  0.639 BFLOPs\n",
            "    1 conv     64  3 x 3 / 2   608 x 608 x  32   ->   304 x 304 x  64  3.407 BFLOPs\n",
            "    2 conv     32  1 x 1 / 1   304 x 304 x  64   ->   304 x 304 x  32  0.379 BFLOPs\n",
            "    3 conv     64  3 x 3 / 1   304 x 304 x  32   ->   304 x 304 x  64  3.407 BFLOPs\n",
            "    4 res    1                 304 x 304 x  64   ->   304 x 304 x  64\n",
            "    5 conv    128  3 x 3 / 2   304 x 304 x  64   ->   152 x 152 x 128  3.407 BFLOPs\n",
            "    6 conv     64  1 x 1 / 1   152 x 152 x 128   ->   152 x 152 x  64  0.379 BFLOPs\n",
            "    7 conv    128  3 x 3 / 1   152 x 152 x  64   ->   152 x 152 x 128  3.407 BFLOPs\n",
            "    8 res    5                 152 x 152 x 128   ->   152 x 152 x 128\n",
            "    9 conv     64  1 x 1 / 1   152 x 152 x 128   ->   152 x 152 x  64  0.379 BFLOPs\n",
            "   10 conv    128  3 x 3 / 1   152 x 152 x  64   ->   152 x 152 x 128  3.407 BFLOPs\n",
            "   11 res    8                 152 x 152 x 128   ->   152 x 152 x 128\n",
            "   12 conv    256  3 x 3 / 2   152 x 152 x 128   ->    76 x  76 x 256  3.407 BFLOPs\n",
            "   13 conv    128  1 x 1 / 1    76 x  76 x 256   ->    76 x  76 x 128  0.379 BFLOPs\n",
            "   14 conv    256  3 x 3 / 1    76 x  76 x 128   ->    76 x  76 x 256  3.407 BFLOPs\n",
            "   15 res   12                  76 x  76 x 256   ->    76 x  76 x 256\n",
            "   16 conv    128  1 x 1 / 1    76 x  76 x 256   ->    76 x  76 x 128  0.379 BFLOPs\n",
            "   17 conv    256  3 x 3 / 1    76 x  76 x 128   ->    76 x  76 x 256  3.407 BFLOPs\n",
            "   18 res   15                  76 x  76 x 256   ->    76 x  76 x 256\n",
            "   19 conv    128  1 x 1 / 1    76 x  76 x 256   ->    76 x  76 x 128  0.379 BFLOPs\n",
            "   20 conv    256  3 x 3 / 1    76 x  76 x 128   ->    76 x  76 x 256  3.407 BFLOPs\n",
            "   21 res   18                  76 x  76 x 256   ->    76 x  76 x 256\n",
            "   22 conv    128  1 x 1 / 1    76 x  76 x 256   ->    76 x  76 x 128  0.379 BFLOPs\n",
            "   23 conv    256  3 x 3 / 1    76 x  76 x 128   ->    76 x  76 x 256  3.407 BFLOPs\n",
            "   24 res   21                  76 x  76 x 256   ->    76 x  76 x 256\n",
            "   25 conv    128  1 x 1 / 1    76 x  76 x 256   ->    76 x  76 x 128  0.379 BFLOPs\n",
            "   26 conv    256  3 x 3 / 1    76 x  76 x 128   ->    76 x  76 x 256  3.407 BFLOPs\n",
            "   27 res   24                  76 x  76 x 256   ->    76 x  76 x 256\n",
            "   28 conv    128  1 x 1 / 1    76 x  76 x 256   ->    76 x  76 x 128  0.379 BFLOPs\n",
            "   29 conv    256  3 x 3 / 1    76 x  76 x 128   ->    76 x  76 x 256  3.407 BFLOPs\n",
            "   30 res   27                  76 x  76 x 256   ->    76 x  76 x 256\n",
            "   31 conv    128  1 x 1 / 1    76 x  76 x 256   ->    76 x  76 x 128  0.379 BFLOPs\n",
            "   32 conv    256  3 x 3 / 1    76 x  76 x 128   ->    76 x  76 x 256  3.407 BFLOPs\n",
            "   33 res   30                  76 x  76 x 256   ->    76 x  76 x 256\n",
            "   34 conv    128  1 x 1 / 1    76 x  76 x 256   ->    76 x  76 x 128  0.379 BFLOPs\n",
            "   35 conv    256  3 x 3 / 1    76 x  76 x 128   ->    76 x  76 x 256  3.407 BFLOPs\n",
            "   36 res   33                  76 x  76 x 256   ->    76 x  76 x 256\n",
            "   37 conv    512  3 x 3 / 2    76 x  76 x 256   ->    38 x  38 x 512  3.407 BFLOPs\n",
            "   38 conv    256  1 x 1 / 1    38 x  38 x 512   ->    38 x  38 x 256  0.379 BFLOPs\n",
            "   39 conv    512  3 x 3 / 1    38 x  38 x 256   ->    38 x  38 x 512  3.407 BFLOPs\n",
            "   40 res   37                  38 x  38 x 512   ->    38 x  38 x 512\n",
            "   41 conv    256  1 x 1 / 1    38 x  38 x 512   ->    38 x  38 x 256  0.379 BFLOPs\n",
            "   42 conv    512  3 x 3 / 1    38 x  38 x 256   ->    38 x  38 x 512  3.407 BFLOPs\n",
            "   43 res   40                  38 x  38 x 512   ->    38 x  38 x 512\n",
            "   44 conv    256  1 x 1 / 1    38 x  38 x 512   ->    38 x  38 x 256  0.379 BFLOPs\n",
            "   45 conv    512  3 x 3 / 1    38 x  38 x 256   ->    38 x  38 x 512  3.407 BFLOPs\n",
            "   46 res   43                  38 x  38 x 512   ->    38 x  38 x 512\n",
            "   47 conv    256  1 x 1 / 1    38 x  38 x 512   ->    38 x  38 x 256  0.379 BFLOPs\n",
            "   48 conv    512  3 x 3 / 1    38 x  38 x 256   ->    38 x  38 x 512  3.407 BFLOPs\n",
            "   49 res   46                  38 x  38 x 512   ->    38 x  38 x 512\n",
            "   50 conv    256  1 x 1 / 1    38 x  38 x 512   ->    38 x  38 x 256  0.379 BFLOPs\n",
            "   51 conv    512  3 x 3 / 1    38 x  38 x 256   ->    38 x  38 x 512  3.407 BFLOPs\n",
            "   52 res   49                  38 x  38 x 512   ->    38 x  38 x 512\n",
            "   53 conv    256  1 x 1 / 1    38 x  38 x 512   ->    38 x  38 x 256  0.379 BFLOPs\n",
            "   54 conv    512  3 x 3 / 1    38 x  38 x 256   ->    38 x  38 x 512  3.407 BFLOPs\n",
            "   55 res   52                  38 x  38 x 512   ->    38 x  38 x 512\n",
            "   56 conv    256  1 x 1 / 1    38 x  38 x 512   ->    38 x  38 x 256  0.379 BFLOPs\n",
            "   57 conv    512  3 x 3 / 1    38 x  38 x 256   ->    38 x  38 x 512  3.407 BFLOPs\n",
            "   58 res   55                  38 x  38 x 512   ->    38 x  38 x 512\n",
            "   59 conv    256  1 x 1 / 1    38 x  38 x 512   ->    38 x  38 x 256  0.379 BFLOPs\n",
            "   60 conv    512  3 x 3 / 1    38 x  38 x 256   ->    38 x  38 x 512  3.407 BFLOPs\n",
            "   61 res   58                  38 x  38 x 512   ->    38 x  38 x 512\n",
            "   62 conv   1024  3 x 3 / 2    38 x  38 x 512   ->    19 x  19 x1024  3.407 BFLOPs\n",
            "   63 conv    512  1 x 1 / 1    19 x  19 x1024   ->    19 x  19 x 512  0.379 BFLOPs\n",
            "   64 conv   1024  3 x 3 / 1    19 x  19 x 512   ->    19 x  19 x1024  3.407 BFLOPs\n",
            "   65 res   62                  19 x  19 x1024   ->    19 x  19 x1024\n",
            "   66 conv    512  1 x 1 / 1    19 x  19 x1024   ->    19 x  19 x 512  0.379 BFLOPs\n",
            "   67 conv   1024  3 x 3 / 1    19 x  19 x 512   ->    19 x  19 x1024  3.407 BFLOPs\n",
            "   68 res   65                  19 x  19 x1024   ->    19 x  19 x1024\n",
            "   69 conv    512  1 x 1 / 1    19 x  19 x1024   ->    19 x  19 x 512  0.379 BFLOPs\n",
            "   70 conv   1024  3 x 3 / 1    19 x  19 x 512   ->    19 x  19 x1024  3.407 BFLOPs\n",
            "   71 res   68                  19 x  19 x1024   ->    19 x  19 x1024\n",
            "   72 conv    512  1 x 1 / 1    19 x  19 x1024   ->    19 x  19 x 512  0.379 BFLOPs\n",
            "   73 conv   1024  3 x 3 / 1    19 x  19 x 512   ->    19 x  19 x1024  3.407 BFLOPs\n",
            "   74 res   71                  19 x  19 x1024   ->    19 x  19 x1024\n",
            "   75 conv    512  1 x 1 / 1    19 x  19 x1024   ->    19 x  19 x 512  0.379 BFLOPs\n",
            "   76 conv   1024  3 x 3 / 1    19 x  19 x 512   ->    19 x  19 x1024  3.407 BFLOPs\n",
            "   77 conv    512  1 x 1 / 1    19 x  19 x1024   ->    19 x  19 x 512  0.379 BFLOPs\n",
            "   78 conv   1024  3 x 3 / 1    19 x  19 x 512   ->    19 x  19 x1024  3.407 BFLOPs\n",
            "   79 conv    512  1 x 1 / 1    19 x  19 x1024   ->    19 x  19 x 512  0.379 BFLOPs\n",
            "   80 conv   1024  3 x 3 / 1    19 x  19 x 512   ->    19 x  19 x1024  3.407 BFLOPs\n",
            "   81 conv    255  1 x 1 / 1    19 x  19 x1024   ->    19 x  19 x 255  0.189 BFLOPs\n",
            "   82 yolo\n",
            "   83 route  79\n",
            "   84 conv    256  1 x 1 / 1    19 x  19 x 512   ->    19 x  19 x 256  0.095 BFLOPs\n",
            "   85 upsample            2x    19 x  19 x 256   ->    38 x  38 x 256\n",
            "   86 route  85 61\n",
            "   87 conv    256  1 x 1 / 1    38 x  38 x 768   ->    38 x  38 x 256  0.568 BFLOPs\n",
            "   88 conv    512  3 x 3 / 1    38 x  38 x 256   ->    38 x  38 x 512  3.407 BFLOPs\n",
            "   89 conv    256  1 x 1 / 1    38 x  38 x 512   ->    38 x  38 x 256  0.379 BFLOPs\n",
            "   90 conv    512  3 x 3 / 1    38 x  38 x 256   ->    38 x  38 x 512  3.407 BFLOPs\n",
            "   91 conv    256  1 x 1 / 1    38 x  38 x 512   ->    38 x  38 x 256  0.379 BFLOPs\n",
            "   92 conv    512  3 x 3 / 1    38 x  38 x 256   ->    38 x  38 x 512  3.407 BFLOPs\n",
            "   93 conv    255  1 x 1 / 1    38 x  38 x 512   ->    38 x  38 x 255  0.377 BFLOPs\n",
            "   94 yolo\n",
            "   95 route  91\n",
            "   96 conv    128  1 x 1 / 1    38 x  38 x 256   ->    38 x  38 x 128  0.095 BFLOPs\n",
            "   97 upsample            2x    38 x  38 x 128   ->    76 x  76 x 128\n",
            "   98 route  97 36\n",
            "   99 conv    128  1 x 1 / 1    76 x  76 x 384   ->    76 x  76 x 128  0.568 BFLOPs\n",
            "  100 conv    256  3 x 3 / 1    76 x  76 x 128   ->    76 x  76 x 256  3.407 BFLOPs\n",
            "  101 conv    128  1 x 1 / 1    76 x  76 x 256   ->    76 x  76 x 128  0.379 BFLOPs\n",
            "  102 conv    256  3 x 3 / 1    76 x  76 x 128   ->    76 x  76 x 256  3.407 BFLOPs\n",
            "  103 conv    128  1 x 1 / 1    76 x  76 x 256   ->    76 x  76 x 128  0.379 BFLOPs\n",
            "  104 conv    256  3 x 3 / 1    76 x  76 x 128   ->    76 x  76 x 256  3.407 BFLOPs\n",
            "  105 conv    255  1 x 1 / 1    76 x  76 x 256   ->    76 x  76 x 255  0.754 BFLOPs\n",
            "  106 yolo\n",
            "Loading weights from yolov3.weights...Done!\n",
            "data/dog.jpg: Predicted in 32.065743 seconds.\n",
            "dog: 100%\n",
            "truck: 92%\n",
            "bicycle: 99%\n"
          ]
        }
      ]
    },
    {
      "cell_type": "code",
      "source": [
        "!./darknet detect cfg/yolov3.cfg yolov3.weights"
      ],
      "metadata": {
        "colab": {
          "base_uri": "https://localhost:8080/"
        },
        "id": "bk-VJt5gaxE6",
        "outputId": "38ac9048-87e7-4ecc-fefb-cd2f08b71a7d"
      },
      "execution_count": 20,
      "outputs": [
        {
          "output_type": "stream",
          "name": "stdout",
          "text": [
            "layer     filters    size              input                output\n",
            "    0 conv     32  3 x 3 / 1   608 x 608 x   3   ->   608 x 608 x  32  0.639 BFLOPs\n",
            "    1 conv     64  3 x 3 / 2   608 x 608 x  32   ->   304 x 304 x  64  3.407 BFLOPs\n",
            "    2 conv     32  1 x 1 / 1   304 x 304 x  64   ->   304 x 304 x  32  0.379 BFLOPs\n",
            "    3 conv     64  3 x 3 / 1   304 x 304 x  32   ->   304 x 304 x  64  3.407 BFLOPs\n",
            "    4 res    1                 304 x 304 x  64   ->   304 x 304 x  64\n",
            "    5 conv    128  3 x 3 / 2   304 x 304 x  64   ->   152 x 152 x 128  3.407 BFLOPs\n",
            "    6 conv     64  1 x 1 / 1   152 x 152 x 128   ->   152 x 152 x  64  0.379 BFLOPs\n",
            "    7 conv    128  3 x 3 / 1   152 x 152 x  64   ->   152 x 152 x 128  3.407 BFLOPs\n",
            "    8 res    5                 152 x 152 x 128   ->   152 x 152 x 128\n",
            "    9 conv     64  1 x 1 / 1   152 x 152 x 128   ->   152 x 152 x  64  0.379 BFLOPs\n",
            "   10 conv    128  3 x 3 / 1   152 x 152 x  64   ->   152 x 152 x 128  3.407 BFLOPs\n",
            "   11 res    8                 152 x 152 x 128   ->   152 x 152 x 128\n",
            "   12 conv    256  3 x 3 / 2   152 x 152 x 128   ->    76 x  76 x 256  3.407 BFLOPs\n",
            "   13 conv    128  1 x 1 / 1    76 x  76 x 256   ->    76 x  76 x 128  0.379 BFLOPs\n",
            "   14 conv    256  3 x 3 / 1    76 x  76 x 128   ->    76 x  76 x 256  3.407 BFLOPs\n",
            "   15 res   12                  76 x  76 x 256   ->    76 x  76 x 256\n",
            "   16 conv    128  1 x 1 / 1    76 x  76 x 256   ->    76 x  76 x 128  0.379 BFLOPs\n",
            "   17 conv    256  3 x 3 / 1    76 x  76 x 128   ->    76 x  76 x 256  3.407 BFLOPs\n",
            "   18 res   15                  76 x  76 x 256   ->    76 x  76 x 256\n",
            "   19 conv    128  1 x 1 / 1    76 x  76 x 256   ->    76 x  76 x 128  0.379 BFLOPs\n",
            "   20 conv    256  3 x 3 / 1    76 x  76 x 128   ->    76 x  76 x 256  3.407 BFLOPs\n",
            "   21 res   18                  76 x  76 x 256   ->    76 x  76 x 256\n",
            "   22 conv    128  1 x 1 / 1    76 x  76 x 256   ->    76 x  76 x 128  0.379 BFLOPs\n",
            "   23 conv    256  3 x 3 / 1    76 x  76 x 128   ->    76 x  76 x 256  3.407 BFLOPs\n",
            "   24 res   21                  76 x  76 x 256   ->    76 x  76 x 256\n",
            "   25 conv    128  1 x 1 / 1    76 x  76 x 256   ->    76 x  76 x 128  0.379 BFLOPs\n",
            "   26 conv    256  3 x 3 / 1    76 x  76 x 128   ->    76 x  76 x 256  3.407 BFLOPs\n",
            "   27 res   24                  76 x  76 x 256   ->    76 x  76 x 256\n",
            "   28 conv    128  1 x 1 / 1    76 x  76 x 256   ->    76 x  76 x 128  0.379 BFLOPs\n",
            "   29 conv    256  3 x 3 / 1    76 x  76 x 128   ->    76 x  76 x 256  3.407 BFLOPs\n",
            "   30 res   27                  76 x  76 x 256   ->    76 x  76 x 256\n",
            "   31 conv    128  1 x 1 / 1    76 x  76 x 256   ->    76 x  76 x 128  0.379 BFLOPs\n",
            "   32 conv    256  3 x 3 / 1    76 x  76 x 128   ->    76 x  76 x 256  3.407 BFLOPs\n",
            "   33 res   30                  76 x  76 x 256   ->    76 x  76 x 256\n",
            "   34 conv    128  1 x 1 / 1    76 x  76 x 256   ->    76 x  76 x 128  0.379 BFLOPs\n",
            "   35 conv    256  3 x 3 / 1    76 x  76 x 128   ->    76 x  76 x 256  3.407 BFLOPs\n",
            "   36 res   33                  76 x  76 x 256   ->    76 x  76 x 256\n",
            "   37 conv    512  3 x 3 / 2    76 x  76 x 256   ->    38 x  38 x 512  3.407 BFLOPs\n",
            "   38 conv    256  1 x 1 / 1    38 x  38 x 512   ->    38 x  38 x 256  0.379 BFLOPs\n",
            "   39 conv    512  3 x 3 / 1    38 x  38 x 256   ->    38 x  38 x 512  3.407 BFLOPs\n",
            "   40 res   37                  38 x  38 x 512   ->    38 x  38 x 512\n",
            "   41 conv    256  1 x 1 / 1    38 x  38 x 512   ->    38 x  38 x 256  0.379 BFLOPs\n",
            "   42 conv    512  3 x 3 / 1    38 x  38 x 256   ->    38 x  38 x 512  3.407 BFLOPs\n",
            "   43 res   40                  38 x  38 x 512   ->    38 x  38 x 512\n",
            "   44 conv    256  1 x 1 / 1    38 x  38 x 512   ->    38 x  38 x 256  0.379 BFLOPs\n",
            "   45 conv    512  3 x 3 / 1    38 x  38 x 256   ->    38 x  38 x 512  3.407 BFLOPs\n",
            "   46 res   43                  38 x  38 x 512   ->    38 x  38 x 512\n",
            "   47 conv    256  1 x 1 / 1    38 x  38 x 512   ->    38 x  38 x 256  0.379 BFLOPs\n",
            "   48 conv    512  3 x 3 / 1    38 x  38 x 256   ->    38 x  38 x 512  3.407 BFLOPs\n",
            "   49 res   46                  38 x  38 x 512   ->    38 x  38 x 512\n",
            "   50 conv    256  1 x 1 / 1    38 x  38 x 512   ->    38 x  38 x 256  0.379 BFLOPs\n",
            "   51 conv    512  3 x 3 / 1    38 x  38 x 256   ->    38 x  38 x 512  3.407 BFLOPs\n",
            "   52 res   49                  38 x  38 x 512   ->    38 x  38 x 512\n",
            "   53 conv    256  1 x 1 / 1    38 x  38 x 512   ->    38 x  38 x 256  0.379 BFLOPs\n",
            "   54 conv    512  3 x 3 / 1    38 x  38 x 256   ->    38 x  38 x 512  3.407 BFLOPs\n",
            "   55 res   52                  38 x  38 x 512   ->    38 x  38 x 512\n",
            "   56 conv    256  1 x 1 / 1    38 x  38 x 512   ->    38 x  38 x 256  0.379 BFLOPs\n",
            "   57 conv    512  3 x 3 / 1    38 x  38 x 256   ->    38 x  38 x 512  3.407 BFLOPs\n",
            "   58 res   55                  38 x  38 x 512   ->    38 x  38 x 512\n",
            "   59 conv    256  1 x 1 / 1    38 x  38 x 512   ->    38 x  38 x 256  0.379 BFLOPs\n",
            "   60 conv    512  3 x 3 / 1    38 x  38 x 256   ->    38 x  38 x 512  3.407 BFLOPs\n",
            "   61 res   58                  38 x  38 x 512   ->    38 x  38 x 512\n",
            "   62 conv   1024  3 x 3 / 2    38 x  38 x 512   ->    19 x  19 x1024  3.407 BFLOPs\n",
            "   63 conv    512  1 x 1 / 1    19 x  19 x1024   ->    19 x  19 x 512  0.379 BFLOPs\n",
            "   64 conv   1024  3 x 3 / 1    19 x  19 x 512   ->    19 x  19 x1024  3.407 BFLOPs\n",
            "   65 res   62                  19 x  19 x1024   ->    19 x  19 x1024\n",
            "   66 conv    512  1 x 1 / 1    19 x  19 x1024   ->    19 x  19 x 512  0.379 BFLOPs\n",
            "   67 conv   1024  3 x 3 / 1    19 x  19 x 512   ->    19 x  19 x1024  3.407 BFLOPs\n",
            "   68 res   65                  19 x  19 x1024   ->    19 x  19 x1024\n",
            "   69 conv    512  1 x 1 / 1    19 x  19 x1024   ->    19 x  19 x 512  0.379 BFLOPs\n",
            "   70 conv   1024  3 x 3 / 1    19 x  19 x 512   ->    19 x  19 x1024  3.407 BFLOPs\n",
            "   71 res   68                  19 x  19 x1024   ->    19 x  19 x1024\n",
            "   72 conv    512  1 x 1 / 1    19 x  19 x1024   ->    19 x  19 x 512  0.379 BFLOPs\n",
            "   73 conv   1024  3 x 3 / 1    19 x  19 x 512   ->    19 x  19 x1024  3.407 BFLOPs\n",
            "   74 res   71                  19 x  19 x1024   ->    19 x  19 x1024\n",
            "   75 conv    512  1 x 1 / 1    19 x  19 x1024   ->    19 x  19 x 512  0.379 BFLOPs\n",
            "   76 conv   1024  3 x 3 / 1    19 x  19 x 512   ->    19 x  19 x1024  3.407 BFLOPs\n",
            "   77 conv    512  1 x 1 / 1    19 x  19 x1024   ->    19 x  19 x 512  0.379 BFLOPs\n",
            "   78 conv   1024  3 x 3 / 1    19 x  19 x 512   ->    19 x  19 x1024  3.407 BFLOPs\n",
            "   79 conv    512  1 x 1 / 1    19 x  19 x1024   ->    19 x  19 x 512  0.379 BFLOPs\n",
            "   80 conv   1024  3 x 3 / 1    19 x  19 x 512   ->    19 x  19 x1024  3.407 BFLOPs\n",
            "   81 conv    255  1 x 1 / 1    19 x  19 x1024   ->    19 x  19 x 255  0.189 BFLOPs\n",
            "   82 yolo\n",
            "   83 route  79\n",
            "   84 conv    256  1 x 1 / 1    19 x  19 x 512   ->    19 x  19 x 256  0.095 BFLOPs\n",
            "   85 upsample            2x    19 x  19 x 256   ->    38 x  38 x 256\n",
            "   86 route  85 61\n",
            "   87 conv    256  1 x 1 / 1    38 x  38 x 768   ->    38 x  38 x 256  0.568 BFLOPs\n",
            "   88 conv    512  3 x 3 / 1    38 x  38 x 256   ->    38 x  38 x 512  3.407 BFLOPs\n",
            "   89 conv    256  1 x 1 / 1    38 x  38 x 512   ->    38 x  38 x 256  0.379 BFLOPs\n",
            "   90 conv    512  3 x 3 / 1    38 x  38 x 256   ->    38 x  38 x 512  3.407 BFLOPs\n",
            "   91 conv    256  1 x 1 / 1    38 x  38 x 512   ->    38 x  38 x 256  0.379 BFLOPs\n",
            "   92 conv    512  3 x 3 / 1    38 x  38 x 256   ->    38 x  38 x 512  3.407 BFLOPs\n",
            "   93 conv    255  1 x 1 / 1    38 x  38 x 512   ->    38 x  38 x 255  0.377 BFLOPs\n",
            "   94 yolo\n",
            "   95 route  91\n",
            "   96 conv    128  1 x 1 / 1    38 x  38 x 256   ->    38 x  38 x 128  0.095 BFLOPs\n",
            "   97 upsample            2x    38 x  38 x 128   ->    76 x  76 x 128\n",
            "   98 route  97 36\n",
            "   99 conv    128  1 x 1 / 1    76 x  76 x 384   ->    76 x  76 x 128  0.568 BFLOPs\n",
            "  100 conv    256  3 x 3 / 1    76 x  76 x 128   ->    76 x  76 x 256  3.407 BFLOPs\n",
            "  101 conv    128  1 x 1 / 1    76 x  76 x 256   ->    76 x  76 x 128  0.379 BFLOPs\n",
            "  102 conv    256  3 x 3 / 1    76 x  76 x 128   ->    76 x  76 x 256  3.407 BFLOPs\n",
            "  103 conv    128  1 x 1 / 1    76 x  76 x 256   ->    76 x  76 x 128  0.379 BFLOPs\n",
            "  104 conv    256  3 x 3 / 1    76 x  76 x 128   ->    76 x  76 x 256  3.407 BFLOPs\n",
            "  105 conv    255  1 x 1 / 1    76 x  76 x 256   ->    76 x  76 x 255  0.754 BFLOPs\n",
            "  106 yolo\n",
            "Loading weights from yolov3.weights...Done!\n",
            "Enter Image Path: /content/kaggle_simpson_testset/kaggle_simpson_testset/abraham_grampa_simpson_0.jpg\n",
            "/content/kaggle_simpson_testset/kaggle_simpson_testset/abraham_grampa_simpson_1.jpg\n",
            "/content/kaggle_simpson_testset/kaggle_simpson_testset/abraham_grampa_simpson_0.jpg: Predicted in 30.533345 seconds.\n",
…
        }
      ]
    },
    {
      "cell_type": "code",
      "source": [
        "!./darknet detect cfg/yolov3-tiny.cfg yolov3-tiny.weights data/dog.jpg"
      ],
      "metadata": {
        "colab": {
          "base_uri": "https://localhost:8080/"
        },
        "id": "Cj1gTFUegZUP",
        "outputId": "3a29e5e3-45bd-459e-abbf-afee8dc43c48"
      },
      "execution_count": 23,
      "outputs": [
        {
          "output_type": "stream",
          "name": "stdout",
          "text": [
            "layer     filters    size              input                output\n",
            "    0 conv     16  3 x 3 / 1   416 x 416 x   3   ->   416 x 416 x  16  0.150 BFLOPs\n",
            "    1 max          2 x 2 / 2   416 x 416 x  16   ->   208 x 208 x  16\n",
            "    2 conv     32  3 x 3 / 1   208 x 208 x  16   ->   208 x 208 x  32  0.399 BFLOPs\n",
            "    3 max          2 x 2 / 2   208 x 208 x  32   ->   104 x 104 x  32\n",
            "    4 conv     64  3 x 3 / 1   104 x 104 x  32   ->   104 x 104 x  64  0.399 BFLOPs\n",
            "    5 max          2 x 2 / 2   104 x 104 x  64   ->    52 x  52 x  64\n",
            "    6 conv    128  3 x 3 / 1    52 x  52 x  64   ->    52 x  52 x 128  0.399 BFLOPs\n",
            "    7 max          2 x 2 / 2    52 x  52 x 128   ->    26 x  26 x 128\n",
            "    8 conv    256  3 x 3 / 1    26 x  26 x 128   ->    26 x  26 x 256  0.399 BFLOPs\n",
            "    9 max          2 x 2 / 2    26 x  26 x 256   ->    13 x  13 x 256\n",
            "   10 conv    512  3 x 3 / 1    13 x  13 x 256   ->    13 x  13 x 512  0.399 BFLOPs\n",
            "   11 max          2 x 2 / 1    13 x  13 x 512   ->    13 x  13 x 512\n",
            "   12 conv   1024  3 x 3 / 1    13 x  13 x 512   ->    13 x  13 x1024  1.595 BFLOPs\n",
            "   13 conv    256  1 x 1 / 1    13 x  13 x1024   ->    13 x  13 x 256  0.089 BFLOPs\n",
            "   14 conv    512  3 x 3 / 1    13 x  13 x 256   ->    13 x  13 x 512  0.399 BFLOPs\n",
            "   15 conv    255  1 x 1 / 1    13 x  13 x 512   ->    13 x  13 x 255  0.044 BFLOPs\n",
            "   16 yolo\n",
            "   17 route  13\n",
            "   18 conv    128  1 x 1 / 1    13 x  13 x 256   ->    13 x  13 x 128  0.011 BFLOPs\n",
            "   19 upsample            2x    13 x  13 x 128   ->    26 x  26 x 128\n",
            "   20 route  19 8\n",
            "   21 conv    256  3 x 3 / 1    26 x  26 x 384   ->    26 x  26 x 256  1.196 BFLOPs\n",
            "   22 conv    255  1 x 1 / 1    26 x  26 x 256   ->    26 x  26 x 255  0.088 BFLOPs\n",
            "   23 yolo\n",
            "Loading weights from yolov3-tiny.weights...Done!\n",
            "data/dog.jpg: Predicted in 1.633963 seconds.\n",
            "dog: 57%\n",
            "car: 52%\n",
            "truck: 56%\n",
            "car: 62%\n",
            "bicycle: 59%\n"
          ]
        }
      ]
    },
    {
      "cell_type": "code",
…
